training/nitrogen_pt.pt (torch, 4869 bytes, 10 tensors)

model.0.weight f8 [4, 2]
0	0x3fd6659f7af1fd0b	0.3499525738370301
1	0x3ff65e1a3e061490	1.3979742453387054
2	0x3fc065d8422b6768	0.12810805540976422
3	0x3ff2ae47c5b64aaa	1.1675489161613464
4	0x3fe8818295e7fb58	0.7658093383650835
5	0xbfe423a7ff4faab2	-0.6293525682970851
6	0x3fd552de5d26fa92	0.333182898491864
7	0xbffac3b7fffb0b36	-1.6727828978770964

model.0.bias f8 [4]
0	0xbfbdf154e71524d8	-0.1169636787573326
1	0x3fe0100b24797700	0.5019584381477387
2	0x3fe00b73b847832b	0.5013979529577218
3	0x3fb6bc2f3d4a6c9c	0.08880896803241217

model.2.weight f8 [4, 4]
0	0xbfd9b2cad0e75fa8	-0.4015376129223065
1	0xbfc73447fec71185	-0.18128299656212846
2	0x3fed8bf81b032eec	0.9233360793673149
3	0x3fdffe59a718c3b9	0.4998993045620029
4	0x3fec4f7fb72c0332	0.8847044541908871
5	0x3fe2b76773a23ae0	0.5848881967993655
6	0xbfec3bd8c8ed86b5	-0.8823055195209323
7	0xbfeb35f425b110fc	-0.8503361450352993
8	0xbfe4bff99d1965c4	-0.6484344547599723
9	0x3fc301b1dd8997cf	0.1484892207838002
10	0x3fe61dcf8d96a83d	0.6911390080833894
11	0x3fe3e4856faebf75	0.6216456586171107
12	0x3ff3c4e66b15b60f	1.2355713065147744
13	0x3febfa75cdb5a79f	0.8743237512364778
14	0xbfc1ab0f06fb4e45	-0.13803279724980846
15	0xbfe751b4fe40de39	-0.7287239995848217

model.2.bias f8 [4]
0	0x3fd06710c30e2fb1	0.2562906174505271
1	0x3fd128589a5c2aa9	0.2680875308439377
2	0xbfd31c1950ba21a0	-0.2985900200224254
3	0xbfa5d7193f518688	-0.04265669725351723

model.4.weight f8 [4, 4]
0	0xbfdff15d351cc36c	-0.4991066950488434
1	0x400373defcda8b98	2.4315776590533
2	0xbfe77402ea9cad71	-0.7329115469232602
3	0x3ff21380ee238582	1.129761629323497
4	0xbfdad0ddcba72a34	-0.4189981926726063
5	0x3fd38a255707daf6	0.3053067541035682
6	0xbffa45ba55ceddcc	-1.6420234062078292
7	0xbffda89db1a88f2b	-1.8536660136969185
8	0xbff17a8cc6f003dc	-1.092419411754455
9	0xbfce6c7804399f7f	-0.23768520551970693
10	0xc00512a19099fe1b	-2.6340972229952633
11	0xbffced886a8116bf	-1.807991424591293
12	0x3fddfc0b5365bb1b	0.4685085596492386
13	0xbffd03a3b024f8f3	-1.8133885269776868
14	0xbfe44111589d08ef	-0.6329428415995418
15	0xbfd54e1d63b36919	-0.33289274917992057

model.4.bias f8 [4]
0	0x3fb78fa3917d7bfc	0.09203550626760654
1	0xbfd6c6367ddff65b	-0.3558479527708635
2	0xbfb4801c7ed4df04	-0.08007982346032
3	0x3fd16de73a9fff43	0.2723329613217979

model.6.weight f8 [4, 4]
0	0x3fcb3ac677892fa9	0.21273117863381444
1	0x4003d937eb1bb8e8	2.48106368711807
2	0x3fffd427c9964d14	1.9892957567688585
3	0xbfc6f3f679d3f21e	-0.17932015370014737
4	0xc006324fd8b70b19	-2.7745663576946638
5	0xbfe21921dfe8982f	-0.5655679105009365
6	0xbfd4031052e93860	-0.31268699738291694
7	0x3fe4feb424bf1eb8	0.6560917585092829
8	0xc004bb04e9f3a52f	-2.5913179662208203
9	0xbfdeceff6677097e	-0.4813841343531279
10	0x3fd70a712279c1b1	0.36001232496985397
11	0x3ff11d04130b4674	1.0695839637668572
12	0x3fe36333b09166a8	0.6058596085160461
13	0xc0003993fe044046	-2.0281143040702174
14	0xbff66f94c7e12982	-1.402241497783138
15	0xbfccd653d2264db7	-0.22529075394832684

model.6.bias f8 [4]
0	0x3fe400b2ff2c3f90	0.6250853523106219
1	0xbf74d821caa4ef0d	-0.005088932035785876
2	0xbfc4b06b2555552f	-0.16163386652866893
3	0x3fdb6b2850f4d44b	0.4284153738584037

model.8.weight f8 [2, 4]
0	0xbfe7996f9514a162	-0.7374799644212937
1	0x3ffc26e2d738fa5a	1.75949367591206
2	0x3ffa202f4cdb173a	1.6328576090031235
3	0x3fd7bf8ac5b6031c	0.37106580074036954
4	0xbfc772e9ae3087fb	-0.18319436078405701
5	0xbfdeb9bf4084be11	-0.4800871019424174
6	0xbfe42ff81dca2310	-0.6308556157901837
7	0x3fc05c59391e9937	0.12781825341262174

model.8.bias f8 [2]
0	0x3fd18abb83caf3cc	0.27409255857838555
1	0x3fd52eff4952ce67	0.33099348221296626
