training/nitrogen_pt.pt (torch, 4549 bytes, 10 tensors)

model.0.weight f8 [3, 2]
00000000: a27f 85ed 09ed e9bf aa95 2304 64e6 f13f
00000010: 07ff a5ab b8e5 c93f 4f9e 3330 0c59 37c0
00000020: c17f 4a68 b4a9 f03f a48f 01a3 e2e8 25c0
-0.8101853980151541 1.1187477266006263 0.2023230398299278 -23.347842228510043 1.0414318155162479 -10.954854101124347

model.0.bias f8 [3]
00000000: 7b46 c2e0 fb6f f2bf 0438 e347 ea86 e2bf
00000010: 8967 9c83 dae8 f03f
-1.1523398189205227 -0.5789691356710596 1.0568490162899897

model.2.weight f8 [3, 3]
00000000: 1a3a 11ea ffb2 e5bf d610 c8c3 ac3f 2d40
00000010: 9b44 9d75 7c1d fe3f d2ba 60ef c986 0fc0
00000020: 95cc 26ff 429f 2440 d7a8 5f4d 8fce af3f
00000030: 7263 a135 ac56 dbbf b4bf 4d7a eaf6 0e40
00000040: 6397 4276 c9bc 23c0
-0.6781005450846493 14.624364965602961 1.8821987718877498 -3.9408148480791647 10.311058019148087 0.06212280101301964 -0.4271650813803297 3.8705644183137
-9.868724532727077

model.2.bias f8 [3]
00000000: 793d 59b0 b681 a2bf 3fe7 1102 3fc3 0240
00000010: b299 132d f05e e0bf
-0.036145886446884164 2.345335022136083 -0.5115891342546119

model.4.weight f8 [3, 3]
00000000: c7a4 b76f 770f f9bf e898 4504 a69d 0240
00000010: 0ba4 3075 fd42 d6bf b89c e618 064d e03f
00000020: 6d6e 2e88 2d65 03c0 75d1 5a61 9d53 e1bf
00000030: 52c0 08a6 0515 0c40 6b7f c965 d87f cd3f
00000040: 5444 3cf6 f3d3 0ec0
-1.5662760127982425 2.326976807950917 -0.3478387493547081 0.5094023214668573 -2.424403251568768 -0.5414568807087067 3.510264680044238 0.23046402902673022
-3.853492664064598

model.4.bias f8 [3]
00000000: 7bbb fbc1 46da b2bf 468f a94a 2eb1 d7bf
00000010: 71b6 d3a0 238f e0bf
-0.07364313350602274 -0.37018925944561365 -0.5174730435516733

model.6.weight f8 [3, 3]
00000000: a0ce 5bbf 37ba d4bf 22c6 2b9d 9f1b e13f
00000010: 2b25 cb08 13af 08c0 603d 84a5 1c7f 04c0
00000020: 71bc 7756 14f8 c0bf e7a2 5bba f7ce f3bf
00000030: 64b0 56c2 a8a1 0cc0 c285 4d29 a835 debf
00000040: 163f 2d5b dd82 08c0
-0.3238658303009547 0.5346220082994402 -3.0854855238909713 -2.5620663577062004 -0.13257078382546042 -1.238029220543632 -3.578935163755931 -0.4720249560687898
-3.0638987658675303

model.6.bias f8 [3]
00000000: 86d0 f5b4 7857 f6bf 62df 2810 50eb ffbf
00000010: adc6 ffe9 172c 0ac0
-1.396355349422295 -1.9949494010197317 -3.2715299874478974

model.8.weight f8 [2, 3]
00000000: f4b7 4506 8404 08c0 e4cf b6c0 87a6 e63f
00000010: 7a32 e7a8 966c dfbf f82a a2e2 9afc c8bf
00000020: 6f29 afa8 2518 0840 d10f ebe6 3421 f53f
-3.002204941752092 0.707828403849359 -0.4910027169651482 -0.19520889345252335 3.011790578694835 1.320607091926821

model.8.bias f8 [2]
00000000: 2509 23e8 9ac2 a2bf fb0b 547f 9ed7 f03f
-0.03664096912099727 1.052641389251902
