training/nitrogen_pt.pt (torch, 4869 bytes, 10 tensors)

model.0.weight f8 [4, 2]
00000000: e5e2 4edd ccad 1dc0 4c9f 9bd1 2e41 0b40
00000010: 4650 81e4 17f3 25c0 69e8 1b4c 10a6 f0bf
00000020: 2dbf 75f6 5a02 d5bf 8f15 2ce6 7894 0140
00000030: fb7f 30f4 e450 13c0 2e06 7b10 71f4 0cc0
-7.419726808490599 3.406827580987658 -10.974791661057804 -1.0405428860672379 -0.3282687575183328 2.1974962217524943 -4.828998389682961 -3.619356278185271

model.0.bias f8 [4]
00000000: 61ec 541a b58d 18c0 7d67 dc3b a4e6 0ec0
00000010: 6981 03be 6698 e33f e6b4 63f1 c18a 10c0
-6.138386165078459 -3.8626179386746444 0.612353678818221 -4.135505458555803

model.2.weight f8 [4, 4]
00000000: d6fc 6a3f 9c5d 1540 e3bf c977 669d 1240
00000010: 97e8 bb3c fe69 10c0 fb87 bc21 5e07 06c0
00000020: e7b0 fbee 91d9 f6bf f781 afc3 b9cf febf
00000030: c9b1 ab42 7592 f63f f263 b6ea fa4d eb3f
00000040: ffc2 10a4 4889 0740 9778 998d d64d 09c0
00000050: 9076 baaf 1d6b 1440 2c94 1a2d 2d9d 1ec0
00000060: 858a 85b2 81fa 1340 0e74 54c6 91d5 2040
00000070: afca dafd 1ae7 ffbf b1d3 4064 9bc4 1740
5.341416350274093 4.653711196602646 -4.103508900612858 -2.7535975108776234 -1.4281176886825564 -1.9257142681091162 1.4107563595126626 0.8532690605380806
2.94203308273461 -3.1630068838558816 5.104605432277495 -7.653492645976296 4.994635381127073 8.417127797898527 -1.9939222255895108 5.941999021965715

model.2.bias f8 [4]
00000000: dff0 85c3 ad98 da3f e112 bfd9 9689 17c0
00000010: 55b8 dae5 0446 1940 41a8 f992 85dd 13c0
0.4155687722593608 -5.884364511763779 6.318378058886158 -4.9663298573378265

model.4.weight f8 [4, 4]
00000000: 4ced d9c9 7893 24c0 b0b0 93a5 c1be eebf
00000010: 707a 8f1e 105e 23c0 5be3 4fd0 ebe3 20c0
00000020: c4a0 5efb 0a17 f93f c48d cadd 108c d83f
00000030: 5ee5 13ba 5444 0bc0 5482 014f 6ee5 fabf
00000040: 92ff f855 c2fe 0b40 9f19 403e 9915 f23f
00000050: 9b60 ba10 8ae5 c7bf 037e aa4e f8f5 eb3f
00000060: ee1a 372a c79f ff3f 1733 27e0 30b0 f33f
00000070: 7c19 b085 5ec9 c4bf 7756 28a5 3677 03c0
-10.288030917980585 -0.9607856973575704 -9.68371673108524 -8.4451584908981 1.5681257075430475 0.38354894313144094 -3.408364728672196 -1.6810134016196985
3.4993941036809213 1.1302730971961876 -0.18669248406218206 0.8737756287045503 1.9765082978280435 1.2305153614026432 -0.1623953011296172 -2.4332096960959535

model.4.bias f8 [4]
00000000: d4b4 915a db9c 22c0 bcd5 f0ef acba 12c0
00000010: 9726 d910 480f f93f ebeb c346 3aaf 17c0
-9.306361036573811 -4.682300328325649 1.5662308366903852 -5.921120744426825

model.6.weight f8 [4, 4]
00000000: 3b42 e21a cef5 1940 40f2 b80d f850 f3bf
00000010: 3157 dbd7 7050 06c0 8891 3e1b e188 00c0
00000020: 3cae f95d d443 1e40 8282 c8a6 6ae1 0640
00000030: 48a0 b0ec 2b03 06c0 82fa b1e8 80b5 0640
00000040: c629 a840 3b91 1a40 1f2d 2ff7 65a8 cd3f
00000050: 36cc 6dc7 9dd3 06c0 d240 066d 543f e03f
00000060: b521 0de0 a4b4 1740 2be4 917c 62a2 1040
00000070: 64a4 828f 00da 07c0 6b4f adde 3016 ecbf
6.4900440407369 -1.2072678123505654 -2.7892777313053547 -2.0668356064290414 7.566239803661627 2.8600667028370603 -2.751548623218728 2.838624780589556
6.6418275931013735 0.2317016083673957 -2.853328283346424 0.5077306870826084 5.926410198976034 4.1585788215680095 -2.9814463817352124 -0.8777088498268147

model.6.bias f8 [4]
00000000: f757 5066 33b8 11c0 088d 2544 f0a9 1cc0
00000010: ce90 a36f a725 0bc0 8a5c 0907 834e 0ec0
-4.429883574155602 -7.165955605308461 -3.3933857652465127 -3.7883358525974176

model.8.weight f8 [2, 4]
00000000: 5b92 b342 2981 fb3f 26c2 7140 e1c8 de3f
00000010: caa4 09c5 93e1 fb3f 25f5 9429 7e85 f73f
00000020: 81b2 bed8 93bf 16c0 f615 3479 f142 d53f
00000030: b19b b574 5778 12c0 9575 f23d 033e fbbf
1.7190334897542445 0.48101073544879325 1.742572564772035 1.4700910209933877 -5.687087427748907 0.332210892069582 -4.617521117767795 -1.7026398105439047

model.8.bias f8 [2]
00000000: 0614 b032 640e eb3f 8082 fea3 eeec eebf
0.8455067625042154 -0.9664223864566139
